task_2/models/logreg.pth (torch, 22659 bytes, 1 tensors)

fc.weight f4 [1, 5376]
000000 f1 7c 1c be 5c 49 0b be 00 09 b6 bd 79 ed 3e bd
       -0.15282036 -0.13602203 -0.08888435 -0.04661319
000010 af a7 4a bd b4 ec bd bd a0 9b 9b bc 61 b6 21 bc
       -0.04947632 -0.09273663 -0.018995106 -0.009870143
000020 f6 87 2b bd bb b2 58 bd de 7d 9a bd ba 46 3d bd
       -0.04187771 -0.052904826 -0.075435385 -0.04621003
000030 15 ff 19 3d ab 8f 2a 3d 59 12 6a bc 47 fb 8a bd
       0.03759678 0.04164092 -0.014286601 -0.067862086
000040 9e 43 ab bd 81 77 ac bd 65 d3 8c bd 34 01 cd bd
       -0.08362506 -0.08421231 -0.06876258 -0.10009995
000050 3a e1 52 bd 5a c4 4f ba c6 b3 3d 3d a1 31 45 3d
       -0.051484324 -0.0007925682 0.046314023 0.048143033
000060 e4 03 8b 3d 77 92 0b 3d d2 39 11 3d d8 b1 10 bd
       0.067878515 0.034075227 0.035455532 -0.035325855
000070 ad 4d 96 bd 81 33 a9 bd 50 30 c6 bd 6a af b3 bd
       -0.07339034 -0.08261777 -0.09677184 -0.08773692
000080 68 ad 92 bd 8e 51 c1 bd ba 36 ea bd e3 4f be bd
       -0.07161981 -0.094393834 -0.114362195 -0.09292581
000090 07 24 08 bd 94 99 4f 3b 8a c8 a2 3d f9 ba 92 3d
       -0.033237483 0.0031677233 0.07948406 0.071645685
0000a0 52 a5 65 3c a3 ad 96 3c fa 02 4f 3d 42 e1 6c 3d
       0.014016466 0.018393343 0.050539948 0.05783201
0000b0 05 10 38 3c e3 00 33 3d fc 40 0f 3c 6d 63 83 bd
       0.011234288 0.043702018 0.008743521 -0.06415448
0000c0 93 76 f0 ba 7f 80 1b 3d 58 72 61 bd 43 25 64 bd
       -0.0018345885 0.03796434 -0.055040687 -0.055699598
0000d0 fe f0 36 bd b2 1d 14 bd cc de 5d bd 08 01 5d bd
       -0.04466342 -0.036161132 -0.054167554 -0.05395606
0000e0 7c 8a ba bd f2 69 7a bd 3c e0 dc bc d4 d6 03 bd
       -0.09108445 -0.061136194 -0.026962392 -0.032187298
0000f0 b5 be 69 bd 5f 2e ec bd b3 ae 39 be b4 5e 3f be
       -0.057066638 -0.11532282 -0.18133049 -0.1868847
000100 4d 2b c3 bd 81 ca a1 bd a7 eb 62 bd 62 eb e1 bc
       -0.09529743 -0.07899953 -0.055400517 -0.02757806
000110 2d b3 10 bd a0 e2 56 bd 2b 7a a4 bc f4 22 3d bc
       -0.035327125 -0.05246222 -0.020077785 -0.011543978
000120 61 15 29 bc f2 79 c0 bc 5d 2c 97 bb 6c 46 e4 bc
       -0.010320039 -0.023495648 -0.004613443 -0.027865611
000130 2d 64 00 3d 2f 4c 6c 3d 12 33 e2 3c 91 48 1c bc
       0.031345535 0.05768984 0.027612243 -0.009538786
000140 af 1e 06 3d 6e 28 db bb 18 ef 9f bc eb fd 2b bd
       0.032744106 -0.006688169 -0.019523188 -0.041990202
000150 b4 e6 c9 3c ad b8 44 3d e9 1d 94 3d 18 1d 05 3d
       0.02464614 0.048027683 0.072322674 0.03249845
000160 19 ef 95 bc 75 80 27 3c 34 e1 ca 3c 9b c9 ba 3b
       -0.018302487 0.010223498 0.024765588 0.005700303
000170 cf 0f cd bc 64 7f 0d 3d 22 82 f8 bc 43 09 75 bd
       -0.025031952 0.034545317 -0.03033549 -0.059823286
000180 c0 d2 7e bd 6e fa 85 bd 8a ff 81 bd 14 ff 8f bd
       -0.062212706 -0.06541906 -0.06347568 -0.07031074
000190 a3 61 8f bc a0 17 46 3d bd eb 93 3d 01 84 92 3d
       -0.017502612 0.048362374 0.07222698 0.07154084
0001a0 3c c9 87 3d 9c e7 45 3d f5 51 25 3d 82 3a 3e 3d
       0.06630179 0.048316583 0.040361363 0.046442516
0001b0 fc 72 7f bc fa c5 4d 3c dd 7f 96 bb 2c 9e 1a bc
       -0.015591379 0.012559408 -0.004592879 -0.009437125
0001c0 20 ef a4 3c aa 54 f3 3c d0 31 c7 bc 1b 74 1b bd
       0.020133555 0.029703457 -0.024315745 -0.037952524
0001d0 d4 21 ee bc c8 7e 91 bc cf cc 18 bd 85 28 ee bb
       -0.029068865 -0.01776065 -0.037304696 -0.007268014
0001e0 0b 38 2e bd 30 5d 0b bd aa 3f 4e bc fb 3a 83 3c
       -0.042533915 -0.034024417 -0.012588421 0.016019335
0001f0 91 1e cc bc 4b 04 71 bd c6 f9 e7 bd 83 51 c8 bd
       -0.024916919 -0.058841985 -0.113269374 -0.09781172
000200 94 24 f9 bc 67 e1 48 bd 7e d7 02 bd fc 17 45 3c
       -0.03041295 -0.049043085 -0.03194379 0.012029644
000210 10 78 22 bb ab d9 0e bc aa 62 a8 bc d9 c5 4f bc
       -0.00247908 -0.008718888 -0.02055486 -0.012681448
000220 96 d5 e7 bc 66 e5 a5 bb 6a af 1e 3c 49 52 f2 bc
       -0.028300088 -0.005062747 0.009685377 -0.029580252
000230 c8 04 ba 3c d4 b4 66 3d bf d3 5e 3d 30 74 42 3d
       0.022707358 0.056324795 0.054401156 0.047474086
000240 76 e3 97 3d 84 b0 eb 3c a4 c6 02 3a 99 fc 8d 3b
       0.074164316 0.028770693 0.0004988706 0.0043330905
000250 60 7c e2 3c 69 00 0f 3d 00 05 e8 3b 99 80 f1 bc
       0.027647197 0.0349125 0.007080674 -0.029480265
000260 a2 2a f9 bc ba fd e4 bc 73 04 18 bd 1e 68 af bc
       -0.030415837 -0.027953018 -0.037113618 -0.021411952
000270 c1 e0 b1 3b 0a 29 6b 3c af 5f d8 bc 16 39 18 bd
       0.005428404 0.014353046 -0.026412813 -0.037163816
000280 95 67 9d bc af 84 5d bc 8b 56 5a b9 0e 61 a5 3c
       -0.01921443 -0.013520404 -0.0002082234 0.02018788
000290 26 7c 23 bc e0 56 53 bb 58 8d 14 3d 46 2a 92 3d
       -0.00997833 -0.0032247826 0.03626761 0.07136969
0002a0 19 80 1e 3d 3a d3 a3 bb a6 85 5d bc 73 e4 18 bc
       0.038696382 -0.0049995454 -0.013520634 -0.00933181
0002b0 e5 6f 88 bc a9 ac b9 3b ad 65 a0 3b d8 47 d8 37
       -0.016654918 0.0056663346 0.004894933 2.5782661e-05
0002c0 e8 87 b1 3b 08 ac 1b 3b 0f 58 5e bd 83 91 6c bc
       0.0054178126 0.0023753662 -0.054283198 -0.01443899
0002d0 3c 39 6f 3c 6d a9 1d 3d 86 96 8f 3c f2 43 8e bb
       0.014601048 0.038491655 0.01752783 -0.004341596
0002e0 83 a8 e4 bc 98 c2 3e bc 58 a3 6f 3a b3 24 e7 3c
       -0.027912384 -0.011643074 0.00091414666 0.028215742
0002f0 b6 a2 ae 3c 84 8b af bb 86 0a d2 bc ad d3 11 bd
       0.021317821 -0.0053572077 -0.025639784 -0.03560226
000300 d1 ab 57 bb d8 14 26 bd b9 12 78 bd e4 79 fb bc
       -0.0032908807 -0.040547222 -0.06056473 -0.03069777
000310 d4 8e d4 bc 75 dd 2a 3d 88 90 c5 bb 8b d6 0d bd
       -0.025947012 0.041715104 -0.0060291924 -0.034628432
000320 2f df 04 bd f5 c7 b8 bb 4d 5c e9 3c 8e 99 04 3d
       -0.032439407 -0.005639071 0.028486395 0.032373004
000330 80 6d 4d 3d c7 ff c9 3d 30 1b 88 3d 0f bb 42 3d
       0.050153255 0.09863239 0.066458106 0.047541674
000340 17 76 16 3d aa 32 67 3c 68 a7 93 3d 42 05 75 3d
       0.036733713 0.0141112 0.072096646 0.059819467
000350 3d 1a 08 bc 2d 57 20 bb 86 6b 9a bc 0f ff ba bc
       -0.008307037 -0.0024466023 -0.0188501 -0.0228267
000360 ea fd c8 3a bd a6 45 bd 9d 38 ae bd c0 24 85 bd
       0.0015334461 -0.048254717 -0.08506892 -0.0650115
000370 89 be 07 3d b5 d1 c4 3b a9 38 a9 bd 30 c6 7e bd
       0.033140693 0.0060064443 -0.0826276 -0.062200725
000380 28 68 e0 3c 1b a5 a4 3c b0 57 e7 bb df 16 2a 3d
       0.027393416 0.02009826 -0.0070600137 0.041525718
000390 01 f3 49 bb c5 c7 7f bb fa 05 81 3c 9c c2 a0 bc
       -0.0030815008 -0.0039028984 0.01574992 -0.019624047
0003a0 a3 4e 8b bc c3 cb a6 bb 98 2b 21 bd 7a 37 b3 bb
       -0.01700527 -0.0050902083 -0.039348215 -0.00546926
0003b0 26 82 ed 3c a2 9e c1 3b 0b c8 43 3d b7 71 b4 3d
       0.028992724 0.005908803 0.047798198 0.08810752
0003c0 36 17 28 3d 62 36 cb 3c 7b 81 22 bd 08 cf 10 bc
       0.04103776 0.024806205 -0.039674263 -0.008838423
0003d0 54 44 88 3d 8d 8f 28 3d 79 a4 2b bc 53 e1 cf bc
       0.066536576 0.041152526 -0.010476225 -0.025375998
0003e0 f5 e5 97 bc b1 a6 0e 3d a7 f1 ad 3c 1f a2 74 3b
       -0.01854227 0.034826938 0.021233393 0.0037328077
0003f0 21 3b 29 3d 6a f0 96 3b 72 d6 bc bc 9a 98 63 bd
       0.041316155 0.0046062963 -0.023051474 -0.055565454
